…
l': {'data_root': '/data/dcq/DataSets/miniImageNet', 'image2level': 'image2task', 'image_size': 84, 'print_freq': 100, 'query_num': 15, 'save_freq': 5, 'save_root': './results/', 'shot_num': 1, 'way_num': 5, 'workers_num': 8}, 'n_gpu': 1, 'test': {'batch_size': 1, 'episode_num': 1000}, 'train': {'batch_size': 1, 'episode_num': 5000, 'epochs': 50, 'loss': {'args': {}, 'name': 'CrossEntropyLoss'}, 'lr_scheduler': {'args': {'gamma': 0.5, 'milestones': [10, 15, 20, 25, 30, 35, 40, 45]}, 'name': 'MultiStepLR'}, 'optim_lr': 0.001}}
ALTNet(
  (features): CNNEncoder(
    (layer1): Sequential(
      (0): Conv2d(3, 64, kernel_size=(3, 3), stride=(1, 1), padding=(1, 1), bias=False)
      (1): BatchNorm2d(64, eps=1e-05, momentum=0.1, affine=True, track_running_stats=True)
      (2): LeakyReLU(negative_slope=0.2, inplace=True)
      (3): MaxPool2d(kernel_size=2, stride=2, padding=0, dilation=1, ceil_mode=False)
    )
    (layer2): Sequential(
      (0): Conv2d(64, 64, kernel_size=(3, 3), stride=(1, 1), padding=(1, 1), bias=False)
      (1): BatchNorm2d(64, eps=1e-05, momentum=0.1, affine=True, track_running_stats=True)
      (2): LeakyReLU(negative_slope=0.2, inplace=True)
      (3): MaxPool2d(kernel_size=2, stride=2, padding=0, dilation=1, ceil_mode=False)
    )
    (layer3): Sequential(
      (0): Conv2d(64, 64, kernel_size=(3, 3), stride=(1, 1), padding=(1, 1), bias=False)
      (1): BatchNorm2d(64, eps=1e-05, momentum=0.1, affine=True, track_running_stats=True)
      (2): LeakyReLU(negative_slope=0.2, inplace=True)
    )
    (layer4): Sequential(
      (0): Conv2d(64, 64, kernel_size=(3, 3), stride=(1, 1), padding=(1, 1), bias=False)
      (1): BatchNorm2d(64, eps=1e-05, momentum=0.1, affine=True, track_running_stats=True)
      (2): LeakyReLU(negative_slope=0.2, inplace=True)
    )
  )
  (metric_layer): ATLModule(
    (W): Sequential(
      (0): Conv2d(64, 64, kernel_size=(1, 1), stride=(1, 1), bias=False)
      (1): BatchNorm2d(64, eps=1e-05, momentum=0.1, affine=True, track_running_stats=True)
      (2): LeakyReLU(negative_slope=0.2, inplace=True)
    )
    (attention_layer): AEAModule(
      (f_psi): Sequential(
        (0): Linear(in_features=64, out_features=4, bias=True)
        (1): LeakyReLU(negative_slope=0.2, inplace=True)
        (2): Linear(in_features=4, out_features=1, bias=True)
        (3): Sigmoid()
      )
    )
  )
)
The num of the test_dataset: 600
============ Testing on the test set ============
Test-(0): [100/600]	Time 0.074 (0.098)	Loss 0.791 (1.134)	Prec@1 73.333 (55.630)
Test-(0): [200/600]	Time 0.018 (0.093)	Loss 0.952 (1.146)	Prec@1 61.333 (54.945)
Test-(0): [300/600]	Time 0.032 (0.091)	Loss 0.984 (1.159)	Prec@1 61.333 (54.383)
…
