…
'from_value': 0.4, 'value_interval': 0.6}, 'general': {'data_root': '/data/dcq/DataSets/StanfordCar', 'image2level': 'image2task', 'way_num': 5, 'shot_num': 5, 'query_num': 15, 'image_size': 84, 'workers_num': 8, 'print_freq': 100, 'save_freq': 5, 'save_root': './results/'}, 'train': {'batch_size': 1, 'epochs': 40, 'episode_num': 3000, 'optim_lr': 0.001, 'lr_scheduler': {'name': 'StepLR', 'args': {'gamma': 0.5, 'step_size': 5}}, 'loss': {'name': 'CrossEntropyLoss', 'args': {}}}, 'test': {'batch_size': 1, 'episode_num': 1000}}
ALTNet(
  (features): CNNEncoder(
    (layer1): Sequential(
      (0): Conv2d(3, 64, kernel_size=(3, 3), stride=(1, 1), padding=(1, 1), bias=False)
      (1): BatchNorm2d(64, eps=1e-05, momentum=0.1, affine=True, track_running_stats=True)
      (2): LeakyReLU(negative_slope=0.2, inplace=True)
      (3): MaxPool2d(kernel_size=2, stride=2, padding=0, dilation=1, ceil_mode=False)
    )
    (layer2): Sequential(
      (0): Conv2d(64, 64, kernel_size=(3, 3), stride=(1, 1), padding=(1, 1), bias=False)
      (1): BatchNorm2d(64, eps=1e-05, momentum=0.1, affine=True, track_running_stats=True)
      (2): LeakyReLU(negative_slope=0.2, inplace=True)
      (3): MaxPool2d(kernel_size=2, stride=2, padding=0, dilation=1, ceil_mode=False)
    )
    (layer3): Sequential(
      (0): Conv2d(64, 64, kernel_size=(3, 3), stride=(1, 1), padding=(1, 1), bias=False)
      (1): BatchNorm2d(64, eps=1e-05, momentum=0.1, affine=True, track_running_stats=True)
      (2): LeakyReLU(negative_slope=0.2, inplace=True)
    )
    (layer4): Sequential(
      (0): Conv2d(64, 64, kernel_size=(3, 3), stride=(1, 1), padding=(1, 1), bias=False)
      (1): BatchNorm2d(64, eps=1e-05, momentum=0.1, affine=True, track_running_stats=True)
      (2): LeakyReLU(negative_slope=0.2, inplace=True)
    )
  )
  (metric_layer): ATLModule(
    (W): Sequential(
      (0): Conv2d(64, 64, kernel_size=(1, 1), stride=(1, 1), bias=False)
      (1): BatchNorm2d(64, eps=1e-05, momentum=0.1, affine=True, track_running_stats=True)
      (2): LeakyReLU(negative_slope=0.2, inplace=True)
    )
    (attention_layer): AEAModule(
      (f_psi): Sequential(
        (0): Linear(in_features=64, out_features=4, bias=True)
        (1): LeakyReLU(negative_slope=0.2, inplace=True)
        (2): Linear(in_features=4, out_features=1, bias=True)
        (3): Sigmoid()
      )
    )
  )
)
=================================== Epoch 0 ===================================
The num of the train_dataset: 3000
The num of the val_dataset: 1000
The num of the test_dataset: 1000
============ Train on the train set ============
Eposide-(0): [100/3000]	Time 0.181 (0.311)	Data 0.000 (0.124)	Loss 1.572 (1.559)	Prec@1 30.667 (31.696)
…
