…
ta_name': 'CUB_birds_2010', 'general': {'data_root': '/data/dcq/DataSets/CUB_birds_2010', 'image2level': 'image2task', 'image_size': 84, 'print_freq': 100, 'query_num': 15, 'save_freq': 5, 'save_root': './results/', 'shot_num': 1, 'way_num': 5, 'workers_num': 8}, 'n_gpu': 1, 'test': {'batch_size': 1, 'episode_num': 1000}, 'train': {'batch_size': 1, 'episode_num': 3000, 'epochs': 40, 'loss': {'args': {}, 'name': 'CrossEntropyLoss'}, 'lr_scheduler': {'args': {'gamma': 0.5, 'step_size': 5}, 'name': 'StepLR'}, 'optim_lr': 0.001}}
ALTNet(
  (features): CNNEncoder(
    (layer1): Sequential(
      (0): Conv2d(3, 64, kernel_size=(3, 3), stride=(1, 1), padding=(1, 1), bias=False)
      (1): BatchNorm2d(64, eps=1e-05, momentum=0.1, affine=True, track_running_stats=True)
      (2): LeakyReLU(negative_slope=0.2, inplace=True)
      (3): MaxPool2d(kernel_size=2, stride=2, padding=0, dilation=1, ceil_mode=False)
    )
    (layer2): Sequential(
      (0): Conv2d(64, 64, kernel_size=(3, 3), stride=(1, 1), padding=(1, 1), bias=False)
      (1): BatchNorm2d(64, eps=1e-05, momentum=0.1, affine=True, track_running_stats=True)
      (2): LeakyReLU(negative_slope=0.2, inplace=True)
      (3): MaxPool2d(kernel_size=2, stride=2, padding=0, dilation=1, ceil_mode=False)
    )
    (layer3): Sequential(
      (0): Conv2d(64, 64, kernel_size=(3, 3), stride=(1, 1), padding=(1, 1), bias=False)
      (1): BatchNorm2d(64, eps=1e-05, momentum=0.1, affine=True, track_running_stats=True)
      (2): LeakyReLU(negative_slope=0.2, inplace=True)
    )
    (layer4): Sequential(
      (0): Conv2d(64, 64, kernel_size=(3, 3), stride=(1, 1), padding=(1, 1), bias=False)
      (1): BatchNorm2d(64, eps=1e-05, momentum=0.1, affine=True, track_running_stats=True)
      (2): LeakyReLU(negative_slope=0.2, inplace=True)
    )
  )
  (metric_layer): ATLModule(
    (W): Sequential(
      (0): Conv2d(64, 64, kernel_size=(1, 1), stride=(1, 1), bias=False)
      (1): BatchNorm2d(64, eps=1e-05, momentum=0.1, affine=True, track_running_stats=True)
      (2): LeakyReLU(negative_slope=0.2, inplace=True)
    )
    (attention_layer): AEAModule(
      (f_psi): Sequential(
        (0): Linear(in_features=64, out_features=4, bias=True)
        (1): LeakyReLU(negative_slope=0.2, inplace=True)
        (2): Linear(in_features=4, out_features=1, bias=True)
        (3): Sigmoid()
      )
    )
  )
)
The num of the test_dataset: 600
============ Testing on the test set ============
Test-(0): [100/600]	Time 0.177 (0.173)	Loss 0.952 (1.031)	Prec@1 60.000 (60.449)
Test-(0): [200/600]	Time 0.448 (0.152)	Loss 0.605 (1.019)	Prec@1 77.333 (61.002)
Test-(0): [300/600]	Time 0.177 (0.142)	Loss 1.380 (1.021)	Prec@1 53.333 (60.882)
…
