…
.5}, 'general': {'data_root': '/data/dcq/DataSets/miniImageNet', 'image2level': 'image2task', 'way_num': 5, 'shot_num': 1, 'query_num': 15, 'image_size': 84, 'workers_num': 8, 'print_freq': 100, 'save_freq': 5, 'save_root': './results/'}, 'train': {'batch_size': 1, 'epochs': 50, 'episode_num': 5000, 'optim_lr': 0.001, 'lr_scheduler': {'name': 'MultiStepLR', 'args': {'gamma': 0.5, 'milestones': [10, 15, 20, 25, 30, 35, 40, 45]}}, 'loss': {'name': 'CrossEntropyLoss', 'args': {}}}, 'test': {'batch_size': 1, 'episode_num': 1000}}
ALTNet(
  (features): CNNEncoder(
    (layer1): Sequential(
      (0): Conv2d(3, 64, kernel_size=(3, 3), stride=(1, 1), padding=(1, 1), bias=False)
      (1): BatchNorm2d(64, eps=1e-05, momentum=0.1, affine=True, track_running_stats=True)
      (2): LeakyReLU(negative_slope=0.2, inplace=True)
      (3): MaxPool2d(kernel_size=2, stride=2, padding=0, dilation=1, ceil_mode=False)
    )
    (layer2): Sequential(
      (0): Conv2d(64, 64, kernel_size=(3, 3), stride=(1, 1), padding=(1, 1), bias=False)
      (1): BatchNorm2d(64, eps=1e-05, momentum=0.1, affine=True, track_running_stats=True)
      (2): LeakyReLU(negative_slope=0.2, inplace=True)
      (3): MaxPool2d(kernel_size=2, stride=2, padding=0, dilation=1, ceil_mode=False)
    )
    (layer3): Sequential(
      (0): Conv2d(64, 64, kernel_size=(3, 3), stride=(1, 1), padding=(1, 1), bias=False)
      (1): BatchNorm2d(64, eps=1e-05, momentum=0.1, affine=True, track_running_stats=True)
      (2): LeakyReLU(negative_slope=0.2, inplace=True)
    )
    (layer4): Sequential(
      (0): Conv2d(64, 64, kernel_size=(3, 3), stride=(1, 1), padding=(1, 1), bias=False)
      (1): BatchNorm2d(64, eps=1e-05, momentum=0.1, affine=True, track_running_stats=True)
      (2): LeakyReLU(negative_slope=0.2, inplace=True)
    )
  )
  (metric_layer): ATLModule(
    (W): Sequential(
      (0): Conv2d(64, 64, kernel_size=(1, 1), stride=(1, 1), bias=False)
      (1): BatchNorm2d(64, eps=1e-05, momentum=0.1, affine=True, track_running_stats=True)
      (2): LeakyReLU(negative_slope=0.2, inplace=True)
    )
    (attention_layer): AEAModule(
      (f_psi): Sequential(
        (0): Linear(in_features=64, out_features=4, bias=True)
        (1): LeakyReLU(negative_slope=0.2, inplace=True)
        (2): Linear(in_features=4, out_features=1, bias=True)
        (3): Sigmoid()
      )
    )
  )
)
=================================== Epoch 0 ===================================
The num of the train_dataset: 5000
The num of the val_dataset: 1000
The num of the test_dataset: 1000
============ Train on the train set ============
Eposide-(0): [100/5000]	Time 0.050 (0.083)	Data 0.000 (0.026)	Loss 1.825 (1.760)	Prec@1 26.667 (29.439)
…
